data.pth (torch, 5847 bytes, 6 tensors)

l1.weight f4 [8, 69]
000000 8f 71 32 3f c4 7e a4 bd 38 ae 81 3e 7d ac ad 3e
       0.69704527 -0.08031991 0.2532823 0.3392066
000010 19 ea 21 3f 55 08 65 3e c2 d8 92 be 10 9f 20 3f
       0.6324783 0.2236646 -0.28680998 0.6274271
000020 12 05 97 bd ee cc 4e 3e 47 87 3c 3e 38 2a 37 3e
       -0.07374014 0.20195362 0.18410979 0.17887199
000030 e5 b3 1e 3e ea 96 c3 3e ee 18 45 3f de f8 8d 3e
       0.15498312 0.38201076 0.76991165 0.27728933
000040 0b 39 02 3f df 88 df 3e 07 27 17 3f f3 62 9b 3e
       0.5086829 0.43659112 0.59043926 0.3034893
000050 32 9b ba 3e 5b 3b 38 3f 4b 0c 2b bd a7 1e c5 3e
       0.3644653 0.7196557 -0.04175977 0.38499948
000060 2a 66 ad be de c1 ab be 21 40 29 be 7a b3 ab be
       -0.33867007 -0.33546346 -0.1652837 -0.33535367
000070 f4 c2 ab be a1 ba ab be 11 e5 78 3f 3a 0e 36 3f
       -0.33547175 -0.33540824 0.9722453 0.7111546
000080 cf 66 1c 3f e4 92 84 3e 0e c4 4f be 34 6b c4 3e
       0.61094373 0.2589332 -0.20289633 0.3836304
000090 42 2e d7 bd 9d d5 82 3e f3 3b b0 bd 22 75 1f 3f
       -0.1050687 0.255536 -0.086051844 0.62288105
0000a0 0f 8a bb bb 56 f3 3b 3e 74 12 02 3f 2f b0 81 3e
       -0.005723245 0.18354544 0.5080941 0.2532973
0000b0 5d 80 80 3e a0 cc a2 bc b9 31 fa 3e 37 0a 3e 3d
       0.25097933 -0.019872963 0.4886606 0.04639646
0000c0 4b 8f 6d 3d a0 0c a7 3e 4a 9a 33 3e 74 1c e8 bc
       0.057997983 0.3262682 0.17539325 -0.02833388
0000d0 3c 2e 94 be af 1a c5 3e 2a 8d 85 3e 19 db fe 3e
       -0.28941524 0.3849692 0.26084262 0.49776533
0000e0 3f 96 f4 3e 64 4d 15 bf c0 25 b8 bd 30 53 90 3e
       0.4777088 -0.58321214 -0.08991575 0.28188467
0000f0 4f a0 0e be 6b 38 1f 3f 37 87 92 3d 55 64 04 bf
       -0.1392834 0.6219546 0.071546964 -0.51715595
000100 49 17 e8 3e 97 38 31 be cd ea 5c 3e 32 cb 7d 3e
       0.45330265 -0.17306744 0.21573944 0.24784544
000110 f1 f5 a5 3e a1 1a cb be eb 75 57 3d f2 79 e6 3e
       0.324142 -0.39668754 0.05260269 0.45014912
000120 98 2b 59 be 47 30 18 be 76 15 50 3e e4 67 f4 3d
       -0.21208036 -0.14862166 0.20320687 0.11933878
000130 61 73 09 3f 50 5a 56 3e fa 58 88 3e 98 7b 42 3e
       0.5369168 0.20932889 0.26630384 0.1899246
000140 f4 47 33 3e 7d d3 15 3e 43 cd 1e 3f b3 12 21 3f
       0.17507917 0.14631458 0.62031955 0.6291916
000150 32 63 64 3e 42 10 be 3e fd af f7 3e b0 f7 1b be
       0.22303465 0.3712178 0.48376456 -0.15231204
000160 f5 a8 bc bd 6f 4e 52 3e 7c fc 0e bf 50 3d c1 3d
       -0.092119135 0.20537733 -0.5585401 0.094355226
000170 56 6e af be d1 16 49 be 7b 9c 5d 3e 7f 2e 61 be
       -0.34263867 -0.1963761 0.21641724 -0.21990393
000180 10 c0 5e 3e f1 99 9a 3e 33 7d 47 3e 23 32 33 3f
       0.21752954 0.30195573 0.19481353 0.6999838
000190 cc 5a b5 be be 32 96 be ec 02 2a 3f b0 75 63 be
       -0.35420835 -0.29335588 0.6641071 -0.22212863
0001a0 f1 de 55 be 81 ef 04 ba df 34 93 be ac 3c 41 3e
       -0.20885827 -0.0005071089 -0.28751275 0.188708
0001b0 f8 dd 01 3f 0a 62 28 bd 15 13 08 3e 4a e7 d3 bd
       0.5072932 -0.041109122 0.13288529 -0.10346849
0001c0 37 f7 38 3e c7 0f 3d 3e 4c a9 aa bd c1 81 ea 3e
       0.18063055 0.1846305 -0.08333072 0.4580212
0001d0 7e 2a 0e 3e 71 7c 18 3e 31 1b 9e 3e 46 eb 7b 3e
       0.13883397 0.1489122 0.3088012 0.24601468
0001e0 e9 99 46 3d 91 15 ec be c7 5b 70 3e 87 63 50 be
       0.048486624 -0.46110204 0.2347251 -0.20350467
0001f0 29 c0 bf 3e b5 3a c6 3d 2c 1b 2c bf d4 7a b8 be
       0.37451294 0.09679166 -0.6722896 -0.3603121
000200 c8 94 b1 3e 4c c3 6c bc c2 e4 f6 3e 20 e1 c7 ba
       0.34683824 -0.014450859 0.48221403 -0.0015249588
000210 db 59 16 be 22 f7 c0 3e 6a 92 ca bd e6 97 33 3e
       -0.14682715 0.37688547 -0.098912075 0.17538413
000220 4a 38 29 3e 96 1a 0f 3f 71 4c 3b be f2 36 90 3d
       0.16525379 0.5589994 -0.18290879 0.0704173
000230 a4 98 c9 3e 9f c0 ba 3e ab 4e 0b 3f f6 21 d1 3e
       0.39374268 0.36475083 0.5441691 0.40846223
000240 e8 cc c5 be ee e7 26 3f f3 aa 5c be e9 2c 23 3e
       -0.38632894 0.65197647 -0.21549587 0.159351
000250 03 fc b2 3e 16 98 af 3e 77 10 b9 3e 9a 15 19 3f
       0.34957895 0.3429572 0.36145374 0.59798586
000260 54 a9 54 3e 7f 8f 27 3f e9 c0 31 be fd 5a 33 3f
       0.20767719 0.6545333 -0.17358746 0.7006071
000270 8e b7 c5 bc 5a 35 ef 3e dc 4a 9b 3c 2e c6 cb bd
       -0.024135377 0.46720392 0.018956594 -0.09949909
000280 f5 c0 0b be 33 18 ff be 76 32 b6 3e 0f d3 90 be
       -0.13647826 -0.4982315 0.35585374 -0.28286025
000290 b9 de 1d be f3 d5 90 be 6b 36 8f be 0b d4 90 be
       -0.15416993 -0.2828823 -0.27971205 -0.28286776
0002a0 5f 36 84 3f 46 74 d9 3d 6d 45 d9 be 37 81 0c 3f
       1.0329093 0.106178805 -0.4243578 0.54884666
0002b0 da e8 38 3f dc 3f 1a 3f 35 0d dd 3e 6f c8 c6 3e
       0.72230303 0.6025369 0.4317414 0.38824794
0002c0 b5 71 be be dd d6 95 be 37 ef 18 be 17 57 98 3e
       -0.37196127 -0.2926549 -0.14935003 0.29753944
0002d0 ac f0 0e 3f 27 d0 56 3e f6 b6 03 3e c3 69 db 3e
       0.55835986 0.20977841 0.12862763 0.42854127
0002e0 41 a9 26 3f 79 a2 de 3e e6 23 1a 3f 55 7f bf 3e
       0.6510201 0.43483332 0.60211027 0.37401834
0002f0 23 69 36 3e 32 2e 77 be 8a 02 2d 3f c3 c7 89 be
       0.17813544 -0.24138716 0.67582 -0.2691022
000300 64 a0 e9 3e eb ad c7 3d 00 22 2a 3f b3 3b 14 bf
       0.4563018 0.09749969 0.6645813 -0.57903594
000310 d6 d2 4b be 4a 57 9f 3e e4 00 0f bc 28 85 0e 3f
       -0.19904646 0.31121284 -0.00872824 0.5567193
000320 98 cc f6 3e fc 8b 04 3f 45 30 d0 3d 9f 70 e1 3e
       0.48202968 0.517761 0.10165457 0.44031236
000330 7f 1e 37 3e 4b e7 23 3f 40 74 17 3f 00 2c b6 3e
       0.17882727 0.640248 0.5916176 0.35580444
000340 15 b8 db be e0 56 10 bc b6 8d bf 3e 66 ae ce be
       -0.4291388 -0.008809775 0.37412804 -0.4036743
000350 b8 f3 eb be 15 81 c1 3d 15 a6 f5 be af c1 4e 3f
       -0.4608438 0.094484486 -0.47978273 0.8076429
000360 36 7a 5d be 35 f8 18 bf c4 4c 72 bd cd 5a f7 be
       -0.21628651 -0.59753734 -0.05915524 -0.48311463
000370 99 cd 1c be ed 79 5b 3f e2 f2 4c 3e 51 85 13 3f
       -0.15312804 0.8573292 0.20014527 0.576253
000380 bc 18 a2 be b9 97 e4 3e 45 cd 98 3e e4 7a dd 3e
       -0.31659496 0.44647005 0.29844108 0.4325782
000390 99 10 bb 3e 4b 69 5e 3f 65 0f e4 3e 7a 88 73 be
       0.365361 0.86879414 0.44542995 -0.2378253
0003a0 48 2f e8 be b0 93 cc bd 26 4a ef be a1 8f fd be
       -0.45348573 -0.09989107 -0.46736258 -0.49523643
0003b0 62 8a f2 be c1 28 49 be 92 86 a6 3e b5 bb 16 3f
       -0.47371203 -0.19644453 0.32524544 0.5888017
0003c0 b4 cb 42 be a2 ad c3 be c0 87 f8 3e 6e b4 90 3d
       -0.19023019 -0.3821841 0.4854107 0.07065664
0003d0 58 1b cb 3e 68 c1 15 3f de 6a 28 3f d9 5a 4f be
       0.396693 0.5849824 0.65788066 -0.202495
0003e0 5c 36 a6 be 30 d2 88 3e da 54 33 3d f2 18 e6 3e
       -0.32463348 0.2672286 0.043782093 0.44940907
0003f0 a4 cc ca bd 2c a5 b1 be 35 b5 b3 bd b5 3f c0 be
       -0.09902313 -0.3469633 -0.08774797 -0.37548605

l1.bias f4 [8]
000000 ed be ab 3e a9 56 07 3f 16 c3 90 3e 69 9a 5a 3f
       0.33544102 0.5286661 0.2827384 0.8539186
000010 cd 36 71 3f 02 80 2a 3f a7 24 81 3f b1 2e 12 3f
       0.94224244 0.66601574 1.008931 0.57102495

l2.weight f4 [8, 8]
000000 27 9a ac 3f 7b ee 6d 3f e0 ab 16 3f 5d 66 a7 3f
       1.3484544 0.9294202 0.5885601 1.3078114
000010 da 78 1b be ad f9 06 3f c0 f6 27 bf 37 5f 87 3f
       -0.1518282 0.52724725 -0.65610886 1.0575932
000020 73 5b 49 bf 49 be 63 bf 50 4d e2 3d a3 b7 05 3f
       -0.78655165 -0.8896223 0.110499024 0.5223333
000030 f4 13 c1 be e7 d6 a7 3f 32 fe a9 3f 49 ad 1a 3f
       -0.37710536 1.3112458 1.3280699 0.6042066
000040 7a d6 13 bf b4 9a 4e 3d 5c dc 9f bf 53 34 58 3f
       -0.5774914 0.050440505 -1.2489123 0.8445484
000050 c1 a9 42 3f 34 0f c3 bd 88 22 4c 3f 2e 78 31 3f
       0.76040274 -0.09524384 0.7974019 0.69324005
000060 9e cf 0d 3f 33 4c 76 3e 52 13 c3 be 3e 22 7e 3f
       0.55394924 0.24052505 -0.38100678 0.99271
000070 7b d4 8a 3f b2 1c 31 bf 9d d4 22 be 37 5a e2 bd
       1.0846094 -0.6918441 -0.15901418 -0.11052363
000080 c1 5b 28 3e 82 25 86 3e 0a 9b 90 3f b2 0b 92 bf
       0.16441251 0.2620049 1.1297314 -1.1409819
000090 ad fd b5 3f 86 10 5c 3f 3b ae cb 3d 4e b9 ca be
       1.4218041 0.8596271 0.09945341 -0.395945
0000a0 02 e0 85 3e 62 4b c8 3f 0f 4c 2e 3f 22 45 8f 3e
       0.26147467 1.5648005 0.68084806 0.27982432
0000b0 aa d6 16 3e 0b 7a 1e bf 80 61 90 3f 1e 63 8a bf
       0.14730325 -0.6190497 1.1279755 -1.0811498
0000c0 39 05 a8 be 71 66 2c bf a6 92 48 3b 45 05 48 bf
       -0.32816485 -0.67343813 0.0030604987 -0.7813304
0000d0 a1 e1 ec 3e 3e 36 9e 3f ed d7 50 3e f9 e4 e9 bd
       0.4626589 1.2360303 0.20394869 -0.11420626
0000e0 11 ed 0d be de 2e ed 3e 4d c0 e8 3e 32 81 d2 be
       -0.13859965 0.4632482 0.45459214 -0.41114193
0000f0 82 f5 8c 3e 0e d5 47 3f 01 2d 95 bf 50 ea 4d bf
       0.27531058 0.7805947 -1.1654359 -0.8043566

l2.bias f4 [8]
000000 cb 2e 98 3b f4 97 25 3f 10 37 3b 3f 4d f9 65 3e
       0.00464425 0.6468499 0.73130894 0.22458382
000010 4c fa ba 3e 4d 2c f4 3e d2 3a 1c 3d 1b 4b 2a bd
       0.36519086 0.4769005 0.038142033 -0.041575532

l3.weight f4 [10, 8]
000000 49 63 67 3e bc 26 04 bf 8d c0 53 bf ad a6 05 3f
       0.22596468 -0.51621604 -0.82715684 0.5220745
000010 41 ed b5 bf c9 04 40 3f cf ba a3 bf 17 fb bd be
       -1.4213029 0.750073 -1.2791384 -0.3710563
000020 13 b1 fc 3e a7 37 92 3e af 83 56 bf 4a fe a6 bf
       0.49353847 0.28558084 -0.83794683 -1.3046353
000030 09 27 15 be cb c4 55 bf be 94 9a be 63 c4 4b bf
       -0.14565672 -0.8350341 -0.30191606 -0.7959654
000040 b1 bf 47 be 7c 16 4d 3f 0f fe 45 3f 4b 49 ca be
       -0.19506718 0.80112433 0.7734079 -0.39509043
000050 f5 71 dc bf 46 a6 95 bd 28 1b d3 bf c7 95 29 bf
       -1.7222277 -0.07307105 -1.6492662 -0.6624417
000060 3c ee df bf e6 65 68 be 97 91 4b 3f 39 8b 55 3f
       -1.7494578 -0.22695121 0.7951903 0.8341556
000070 76 55 79 3e 4d 20 d3 3e a3 cf 87 bf 9e c6 f5 be
       0.24349007 0.4123558 -1.0610241 -0.48003095
000080 86 17 a8 bf 74 d9 6e 3e 01 f6 52 bf aa 0e 9e bf
       -1.3132179 0.2332514 -0.8240662 -1.2348225
000090 71 f7 06 3f fd 23 e2 3d 69 17 32 3f cc 74 53 bf
       0.52721316 0.110420205 0.6956697 -0.8260009
0000a0 97 aa e9 bd 47 2b 32 bf 02 e0 a7 bf 99 88 44 bf
       -0.114094906 -0.69597286 -1.3115237 -0.7677093
0000b0 bc 72 0d 3f 92 c1 4c 3f c9 54 94 bf e1 dd a6 bf
       0.55253196 0.79982865 -1.1588374 -1.3036462
0000c0 25 37 64 3e 4d 88 93 bf db 72 5d 3f b3 40 74 3f
       0.22286661 -1.1525971 0.8650338 0.95411223
0000d0 4a 40 5a bf 3c 9f b1 bf a5 33 a3 bf dc 34 e2 be
       -0.8525435 -1.387672 -1.2750136 -0.44180954
0000e0 66 f8 09 be 6b 55 8a bf 3f 3c 3a bf 8c d3 29 bf
       -0.13473663 -1.0807317 -0.7274818 -0.6633842
0000f0 3e 21 06 3f 22 b8 60 be df 24 01 3f a2 05 7d 3f
       0.52394474 -0.21945241 0.50446886 0.9883672
000100 75 11 e7 3e a6 ed 92 bf ca 0a c9 bf 3c a8 da 3e
       0.45130506 -1.1478775 -1.5706418 0.42706478
000110 c2 65 04 3f 54 aa 99 bf e7 77 ca bf d6 50 85 bf
       0.5171777 -1.2005105 -1.5817841 -1.0415294
000120 91 0e 86 bf fb 0f 58 3f 88 75 1d 3f 09 79 a2 bf
       -1.0473195 0.84399384 0.61507463 -1.2693187
000130 a5 b5 ae bd ec 63 c5 bf ab aa 1c 3f 1b 4d 03 c0
       -0.0853074 -1.5421119 0.6119792 -2.0515811

l3.bias f4 [10]
000000 fe 6e f9 3d 47 22 58 be 44 b9 7d bd 5f 0d ac 3e
       0.12179373 -0.21106826 -0.06194426 0.3360395
000010 7b 34 72 bd 7b d9 86 3e d4 c4 a8 3e ec 97 9e be
       -0.05913208 0.263378 0.32962668 -0.30975282
000020 45 16 e8 3d 3f a0 03 3e
       0.113323726 0.12854098
