data.pth (torch, 5591 bytes, 6 tensors)

l1.weight f4 [8, 64]
000000 de 15 46 3f 52 a0 35 3e 08 a6 ab be b9 bb b0 3d
       0.77377117 0.17736939 -0.3352511 0.08629555
000010 e4 26 20 3f c1 5a 2d 3f 0f 51 ab 3e b8 9b 66 3e
       0.6255934 0.67716604 0.3346028 0.2252034
000020 be 2c 2e be 33 7b 17 3f fe 35 12 3f cf 5d 28 3f
       -0.17009255 0.5917236 0.57113636 0.6576814
000030 be 10 05 3f 77 14 28 3c 3e ea 1f 3f 73 d4 cd 3e
       0.5197867 0.010258785 0.624668 0.40201148
000040 47 83 1d 3f 05 15 08 be 0a 32 25 3f 92 af 5a 3e
       0.6152844 -0.13289268 0.6452948 0.21356037
000050 6c 24 fc 3e 83 ee 21 3f 3d 28 da be bd 04 21 3f
       0.49246538 0.63254565 -0.42608824 0.62897855
000060 09 33 df be 6f 4b 8c 3e 61 e8 d4 be a6 f8 85 3e
       -0.43593624 0.274013 -0.4158354 0.26166266
000070 f0 26 84 3e 41 30 ad 3e 83 02 1d 3e 2b 17 4a 3f
       0.25810957 0.33825877 0.1533299 0.789416
000080 df 3e 19 3f 3b db f7 3d 59 ee 80 be 71 e3 34 3e
       0.5986156 0.12102362 -0.25181845 0.17664887
000090 19 af e1 bd 58 95 33 3b e0 57 ee bc 38 e0 20 3f
       -0.11019725 0.0027402248 -0.029094636 0.6284213
0000a0 72 a4 a9 be ce 00 3c 3f 04 db 94 3e da 0d eb 3e
       -0.33133274 0.7343873 0.29073346 0.45909005
0000b0 2d 6b 6b be 00 d7 79 bd 5f 76 0b 3f a5 51 24 3f
       -0.22990103 -0.060996056 0.54477495 0.6418708
0000c0 3b 88 f6 3e ec 71 08 bd c6 49 0f bf e5 a4 f2 3e
       0.4815081 -0.03331177 -0.55971944 0.4739143
0000d0 e8 84 39 3e b2 6c 36 3f 0a a9 99 3e 80 b1 3b bf
       0.18117106 0.71259606 0.3001178 -0.7331772
0000e0 e4 46 d6 be 6c e5 80 3e 60 d4 29 bf 53 c9 07 3f
       -0.4185096 0.25175035 -0.66339684 0.5304157
0000f0 e1 ae ae be 50 1b 1b 3f 22 44 72 3e bb 0b 3c 3d
       -0.34117797 0.6058855 0.23658803 0.045909625
000100 02 f9 e4 be e2 a6 5a 3e 84 6c c4 3e 1c 9d bd be
       -0.44721228 0.21352723 0.3836404 -0.37033927
000110 19 a0 6a 3f 91 bc 16 3f 47 ea de 3e 68 cc 50 3f
       0.9165054 0.5888148 0.43538114 0.815619
000120 4b fb 58 bb 4b 98 e2 3e e4 3e 2b 3f 5d 83 b6 3e
       -0.0033108767 0.44256815 0.6689284 0.35647097
000130 bf f2 08 3f e6 f0 0d 3f fc 7e c4 be 3a 42 a3 3e
       0.534954 0.55445707 -0.3837813 0.31886464
000140 7a 68 12 bf c2 14 0b 3f 4d 7e 62 be 63 36 86 bd
       -0.5719067 0.5432855 -0.22118492 -0.06553342
000150 56 7c d1 3b 3a 55 62 be ce a7 93 be 03 f9 e1 be
       0.006392996 -0.22102824 -0.28838962 -0.44135293
000160 64 37 43 3f ac e8 1c 3f ea c4 bd be 45 f5 05 3f
       0.76256394 0.6129253 -0.37064296 0.52327377
000170 5b c0 29 3f e4 07 50 3f e3 d5 68 3f 2f f3 18 3d
       0.66309136 0.8126204 0.90951365 0.037341293
000180 f1 d4 ed be 6a be 15 3f a9 e7 52 3f 24 35 0b bf
       -0.46451524 0.58493674 0.82384735 -0.5437796
000190 4b 1a a4 3e c4 4a e6 be 40 72 42 be 0b a4 d4 be
       0.3205131 -0.44978917 -0.18988895 -0.41531405
0001a0 49 21 0a be eb 31 f6 3e 08 c4 0a be 16 bc 20 be
       -0.1348926 0.4808496 -0.13551342 -0.15696749
0001b0 4e 47 06 3f c1 08 17 3f 6e 3c 90 3e 17 f8 c7 3e
       0.5245255 0.5899773 0.28171104 0.39056465
0001c0 bb 11 de 3e 9c 70 60 be ec eb 42 3f c0 17 8d be
       0.43372902 -0.21917957 0.7614124 -0.27557182
0001d0 61 83 31 3d 68 99 01 be f8 e7 e4 3c bc 5f 49 bf
       0.043338183 -0.12656176 0.027942643 -0.78661704
0001e0 a4 a1 5a be 23 fd 1c 3f 38 a0 21 3f b7 9f f1 bd
       -0.21350724 0.61323756 0.631351 -0.11798041
0001f0 31 f9 31 3f 86 3b a1 3e f3 68 54 3f 9e bf f7 3e
       0.6952086 0.31490725 0.8297264 0.4838838
000200 29 b3 0a bf 78 89 cd 3e 06 88 90 be 81 55 59 be
       -0.54179627 0.40143943 -0.28228778 -0.21224023
000210 9e 65 d3 be f4 eb 64 3f 8d 86 e4 be 45 44 8d 3c
       -0.41288465 0.89422536 -0.44633904 0.017244468
000220 ea 32 69 3f 5d 4e ad 3e ae 67 07 3f 75 78 56 3f
       0.91093314 0.3384885 0.5289258 0.8377755
000230 bb 36 2b 3f 23 21 8a be f4 d8 05 3f a5 ae 85 bc
       0.6688039 -0.26978406 0.5228417 -0.016318629
000240 96 94 03 3f e4 a6 32 be fe f6 96 be eb 07 98 be
       0.513986 -0.17446476 -0.29485315 -0.2969354
000250 3f 69 84 3e 13 5b 3f bc a1 23 54 3f b2 54 ea be
       0.25861546 -0.011679429 0.82866865 -0.45767742
000260 76 b2 58 3e 50 46 57 bf d9 ff 18 3f b5 fd 5b bf
       0.21161827 -0.84091663 0.5976539 -0.85934
000270 5b 04 5c bf 96 fe 5b bf e8 72 45 be 53 50 85 3e
       -0.85944146 -0.8593534 -0.19282115 0.26037845
000280 8c 58 7c be 6a 4c 59 be 5d 46 cf 3e 93 e0 0c bf
       -0.24643153 -0.21220556 0.4048337 -0.55030173
000290 d5 ce e3 3e f3 69 10 bf e4 56 02 3f 8f 9d 1d 3f
       0.44493738 -0.56411666 0.50913835 0.6156854
0002a0 c5 d0 15 3f f7 38 4f 3f ad a9 23 be 2d 0b e1 3e
       0.5852168 0.80946296 -0.15982695 0.4395384
0002b0 ac 54 f2 3e f4 e6 65 3c 0c 7c 4e 3f 52 8a 96 3e
       0.47330225 0.014032114 0.8065803 0.29402405
0002c0 35 04 e7 3e e4 41 2c 3f a5 fa 5e 3e 14 70 bd 3e
       0.45120397 0.6728804 0.21775301 0.3699957
0002d0 85 81 08 be ea 15 3a 3f 07 79 8a be e7 22 4e 3f
       -0.13330658 0.7268969 -0.27045462 0.80522007
0002e0 9a 57 13 3f 4d b5 19 3e b1 b6 8c 3e 1e cc c2 3e
       0.57555544 0.15010567 0.27483132 0.38046354
0002f0 d8 8d b7 3e 7d 5a f5 3e 5d 6f f7 3e d8 d9 b7 be
       0.35850406 0.479206 0.4832715 -0.3590839
000300 06 c6 43 3f 15 b1 07 3e 75 51 fb 3e 03 37 ba 3e
       0.76474035 0.13251145 0.49085584 0.36370096
000310 8f 01 4f 3f 55 65 b4 3e 8d a5 24 3e c1 cd 63 3f
       0.80861753 0.3523356 0.16078778 0.8898583
000320 57 b7 0b bf e7 0a 16 3d 0f c2 dd 3e 72 9e ad 3e
       -0.5457663 0.03663149 0.43312117 0.33909947
000330 dc 7e ed 3e bc fa 1b 3f 27 aa a1 bd 75 6a 34 3f
       0.4638585 0.60929465 -0.07893782 0.7047494
000340 bc d6 1d be f3 1e 3a 3f 57 ed 38 3f 54 63 9c 3e
       -0.15413946 0.72703475 0.7223715 0.3054453
000350 2d e0 2a be b1 1a 4b 3f 7f af 0b bf 8a 05 1c 3f
       -0.16687079 0.793376 -0.5456466 0.6094595
000360 0a 24 d3 bd 6c 6e dc 3e 5d 57 7f be f6 8e dd 3e
       -0.10309608 0.43052995 -0.2493567 0.43273133
000370 de 0a df 3e 16 7c db 3e ae 5d 77 3f 85 f4 61 3f
       0.43562979 0.42868108 0.9662732 0.8826373
000380 76 1a 1c 3f 4d 8b 29 3f b3 b5 58 be 4d 86 d2 3e
       0.60977876 0.6622818 -0.21163063 0.41118088
000390 9a 85 cc 3d a6 d6 17 3e 02 7c b9 be 4e 8e 07 be
       0.0998642 0.14827976 -0.36227423 -0.13237879
0003a0 57 42 8b be 2b 70 f6 3e 8b d2 ec 3e 00 8f b6 be
       -0.2719905 0.48132452 0.46254382 -0.35655975
0003b0 12 a1 83 3d 1f ad 3a 3f 38 38 01 3f 76 ca 7b 3e
       0.06427206 0.7292041 0.5047641 0.24588951
0003c0 a4 57 42 3d a6 2f 19 bf aa eb a6 be 55 a5 35 be
       0.047446862 -0.5983833 -0.32601672 -0.1773885
0003d0 40 d3 a9 3e e4 e9 a6 3b fe 26 13 3f a1 18 1c bf
       0.33168983 0.0050938 0.5748137 -0.6097508
0003e0 c7 22 87 be f6 30 64 3e 08 63 51 be 20 9a 9d be
       -0.2639372 0.22284302 -0.20447934 -0.3078165
0003f0 56 13 ee bd 31 34 30 3e 10 31 17 3f 34 d9 ee 3e
       -0.11624782 0.1720741 0.5905924 0.46650088

l1.bias f4 [8]
000000 a3 b1 3b 3f 33 91 21 3f 02 fe 5b 3f f5 af 0b 3f
       0.7331793 0.6311218 0.8593446 0.54565364
000010 b4 3b 3e 3f 06 6a 91 3f 61 f1 13 3f 8e 90 7a 3f
       0.7430985 1.1360481 0.5779019 0.9787682

l2.weight f4 [8, 8]
000000 4a 6f ac 3e 2b 25 92 3f cb 2d a1 3f 52 07 02 3f
       0.33678657 1.1417593 1.25921 0.5079242
000010 30 c8 9d 3f 90 a1 aa bf 2a be 28 3f be 5a c0 bd
       1.2326717 -1.3330555 0.6591517 -0.09392308
000020 11 46 93 3f 19 2a 58 3e b3 8c 59 3f 97 e9 53 be
       1.1505758 0.21109809 0.84980315 -0.20694576
000030 2a f0 4d bf 0c 6d ad 3d b9 fe d3 be 7a 03 d8 3f
       -0.80444586 0.08468065 -0.41405275 1.6876061
000040 7c 95 43 3f 29 17 b9 bf 3f b4 2c 3f 3e f6 ea 3e
       0.7639997 -1.4460193 0.67462534 0.45890993
000050 da 23 23 3f a1 f3 b5 3f ba df 6f 3f 47 68 c0 bf
       0.6372658 1.4214975 0.93700755 -1.5031823
000060 2a 5b 39 bf 37 4d b7 3e 19 50 45 3f a9 f7 a3 bf
       -0.7240473 0.35801098 0.77075344 -1.2809955
000070 76 dc 92 3f 2d 86 b9 3f 38 d2 c8 3f 2d 27 67 3f
       1.1473529 1.4494072 1.5689154 0.9029415
000080 20 33 6a 3f 74 59 b8 3e 3e aa e9 3e 56 9f 82 3f
       0.9148426 0.36005747 0.45637697 1.0204875
000090 61 11 91 bf a4 c1 2f 3e 07 33 07 bf 9a ec 39 bf
       -1.1333429 0.17163712 -0.52812237 -0.7262665
0000a0 21 20 8f be f9 c8 13 be e0 ed ee bc 22 fb af be
       -0.279542 -0.14432134 -0.029166162 -0.34371287
0000b0 eb 68 7a be 2f 30 9d 3e f4 af b6 bd 23 d3 48 be
       -0.24454086 0.30700824 -0.08920279 -0.19611792
0000c0 6b 2d 86 be 60 7f 5f bd 8d 06 61 be b4 91 80 be
       -0.26206526 -0.054564834 -0.21975155 -0.25111163
0000d0 24 cf be 3c 08 ae 93 bd 98 7f f0 3b 38 e8 3b be
       0.023292132 -0.07210928 0.007339429 -0.18350303
0000e0 8d aa ba 3e 76 e6 59 3f 3b dd ab bf dd 29 c0 3f
       0.36458245 0.8511728 -1.3426889 1.5012776
0000f0 73 85 1c 3f c3 3c 9a 3f 12 41 9a bf 2c 6f d5 3e
       0.6114113 1.2049793 -1.2051108 0.4168638

l2.bias f4 [8]
000000 d1 72 e4 3e 41 af 0b 3f 3d 64 fc 3e 65 b8 3a 3f
       0.44618848 0.5456429 0.49295226 0.72937614
000010 bf e2 d5 3e 3f 0b 37 be ba 1e 0e bd d2 24 2d 3f
       0.41774556 -0.17875384 -0.034697272 0.6763431

l3.weight f4 [10, 8]
000000 78 de 38 be 6c 37 f0 3e f4 10 b4 3e 09 cd 66 bf
       -0.18053615 0.46917284 0.35169184 -0.9015661
000010 f9 95 06 3f 04 1b a9 be 23 77 27 be 89 7a 82 bf
       0.5257259 -0.33028424 -0.16354041 -1.0193645
000020 70 e1 85 be f2 7b 99 bf fb 8b 28 3f 1f 53 68 be
       -0.26148558 -1.199095 0.65838593 -0.22687958
000030 4d 1d 9f bf e8 10 63 3d f7 05 81 3e 52 d6 fa 3e
       -1.2430817 0.055436045 0.25199863 0.48991638
000040 c2 3b be be 96 61 0b 3f bf cf 2a bf 3a 38 35 3f
       -0.37154967 0.5444578 -0.66723245 0.7078892
000050 9f f4 ab bf 74 a3 9b bd bc 67 17 be d1 e8 6b bf
       -1.3434027 -0.075995356 -0.14785665 -0.92152125
000060 b3 52 f0 be c8 0d 14 3f 46 05 94 bf 30 f2 bf bd
       -0.46938094 0.5783353 -1.1564109 -0.093723655
000070 6d 4b f7 be f8 29 43 3d 54 33 5f bd 25 b9 36 3f
       -0.48299733 0.047647446 -0.05449231 0.7137626
000080 2d 03 23 3f d6 f1 88 bf 80 bb 96 bf 37 d0 c5 3e
       0.6367672 -1.0698802 -1.177597 0.38635418
000090 b7 62 7a bf 52 b9 65 3e 2a 5f 96 bc 3d ec ba be
       -0.97806877 0.22433975 -0.018355925 -0.3650836
0000a0 9a 1a 33 3f e8 16 bc bf 4e a5 e3 be 6c bb 5e bf
       0.69962466 -1.469449 -0.44462055 -0.87004733
0000b0 fe 48 cf be c9 8a 8b 3e a1 d1 04 be 84 37 2c 3f
       -0.40485376 0.27254322 -0.12970592 0.6727221
0000c0 b0 5a b8 bf eb 9e 9c be 15 20 84 3f ca c7 80 bf
       -1.4402676 -0.30589995 1.0322291 -1.0060971
0000d0 50 95 e7 3e c6 a0 a2 be 61 73 ae be 02 cf 0a 3e
       0.45231104 -0.31763285 -0.34072402 0.1355553
0000e0 06 b9 a1 3e c2 77 49 3f 0c 43 a0 bf 7d c6 c7 bf
       0.31586474 0.7869836 -1.2520461 -1.5607449
0000f0 27 7b 87 3e 10 b1 c5 bd 18 1d 9d be 9a ff 5e be
       0.26461145 -0.096529126 -0.3068626 -0.21777192
000100 ab 62 d9 be 2f b4 23 3c ad 6d d2 be d9 a7 c3 bf
       -0.4245809 0.00999169 -0.410993 -1.5285598
000110 7b f1 3d 3f 9e 0b 3e 3e d3 16 9f 3e 5c 97 e3 3e
       0.74196595 0.18559119 0.310721 0.44451416
000120 ee 22 8f 3d 7d b6 d9 bf 67 de 03 3f 30 5d ff 3e
       0.06989084 -1.7008816 0.51511234 0.49875784
000130 a2 45 41 bf 50 51 49 be 2b 09 9d be 9c 32 8c bf
       -0.75496876 -0.19659925 -0.30671057 -1.0952945

l3.bias f4 [10]
000000 36 57 00 3e 70 b5 d4 be 64 7b 93 3e 0c 03 5b 3e
       0.12533268 -0.41544676 0.28805077 0.21387881
000010 e6 de b8 bd 79 d7 1b 3e da c4 26 3e fb 85 1a 3b
       -0.090268895 0.15218915 0.1628603 0.0023578394
000020 c9 86 12 bf f6 7c 30 3e
       -0.57236916 0.17235169
